latest_model.tflite (tflite, 121596 bytes, 13 tensors)

arith.constant6 f4 [32, 1, 3, 6]
00000000: 1381 20be 636a c2bd 0d7f 753e b6df 073e
00000010: 4b15 a13d ab17 083e 0162 123e 7e69 ccbd
00000020: 59ed 91bc db4d 163e 6864 03be 18e3 5b3e
00000030: 64f7 223d 7419 f43d 7498 dd3d 3e26 5b3e
00000040: 48d3 ed3d fa5e 383e 8999 2f3e 4e34 cb3c
00000050: 3abf 22bd d36d 16be 8f25 24be 7559 013d
00000060: 53f2 303e 59b1 0ebe 9ad4 77be a57f b13d
00000070: 93dc 4e3e 34ce b7bc 58f9 b9bd e9c0 4a3e
00000080: 930e 3cbd e9a4 07be b42b 2ebe bebd f9bd
00000090: 101a 0cbe 215c 57be 15e3 9fbc 3998 513c
000000a0: dc44 093e 0b76 59be 854f 4ebe 3caf 543e
000000b0: b566 273e fb6f ccbc 7f0f 473e e4ce b33d
000000c0: ef66 743e d4fb 6d3d 025c 7b3d 0974 133e
000000d0: f090 053d a595 d4bc d3aa 66be 17a1 073e
000000e0: 0d57 f8bd 4838 6ebd 4a99 27bc b1dc 47be
000000f0: 5740 5fbe 9cae 14be 4b7a 2dbe 75a7 b63d
00000100: 94e4 2d3c d72f b4bd 1cbc 0b3e 136d 61be
00000110: 9443 f63d c814 d0bd 03d7 383e c517 fcbd
00000120: 054a 953d 7422 1c3e ecfb 5abd b574 38be
00000130: b726 6ebe 64dd d6bd 59bc 503e a8ca 2bbd
00000140: dc2f 263e 23f3 183e be8b d23d 8745 4abc
00000150: 0bdb 4d3e a6ce 013e 8abf 793d 8c47 db3c
00000160: a745 46be 7754 793d 9622 f13d ae0a 4cbd
00000170: 923d 5f3e f49f 1a3e 3b9c 543e b30c 973d
00000180: 679e 45be 914e 393e 6ed3 4d3e 3eb5 7a3c
00000190: 7040 f63d 5fba 9dbc 56db 323e 1b40 3abe
000001a0: fba3 33be 60d8 0e3e b520 16bd 994c 3cbe
000001b0: dbe2 01be 7d5f 6bbd 1dac 083e 0717 64be
000001c0: d8ea 3ebe 82fa 03be 7a2c d0bc 0f04 3dbe
000001d0: a7a2 3b3d a4ce a7bd 6a6c 3c3e 4ef1 66bd
000001e0: 5985 b7bd b926 10be 571e 153e c5ec f73d
000001f0: 4240 69be 63b0 703d a441 0abe 1e33 a4bd
00000200: ff29 9fbd d914 12bd baf6 773d d1f3 9ebd
00000210: 6fdd 8f3d 3d73 4c3e 1665 96bd bdf2 693e
00000220: b108 393d e406 20be 722c 533e 8ae0 463e
00000230: 7d50 183e d011 c0bd 98c6 6ebb 64bf 3bbe
00000240: d8c1 fcbd e1ca 4dbe 2853 10be 63de 273e
00000250: 5441 2c3d 2432 feba 31db c9ba 1214 35be
00000260: 8be7 043e 01fc 013e 1fe1 d13b 5baa 383d
00000270: a609 f0bd f134 69be 4035 6e3d 7c06 513e
00000280: 30a7 123d 7e5e 3fbc 8bb9 49bd d4d3 e03d
00000290: 1114 71bc bf79 2d3e 24d0 e7bd d523 68be
000002a0: e70d 7d3d 3cd0 be3d e123 163d 3849 50be
000002b0: 187c 3b3e 7cc4 2cbe aa0f 153e 8048 f83d
000002c0: b793 e43d 2f62 5abe d858 f83d 3da8 b53d
000002d0: 0064 bfbd 28e5 bd3d 3cf1 36be 718b fe3d
000002e0: 25ca a4bd 449c 453d 17de 233e b222 8cbd
000002f0: 74db 08be c144 02be 9460 50bd 7048 64be
00000300: bcec 943d 227a 3bbe 941a 8cbd fb78 113e
00000310: 5181 a33c bed0 e13d 943e eb3d 0feb b4bd
00000320: 0f06 c5bd ae25 063c 77b3 bc3c 21a0 313e
00000330: 414c 483e 48a0 eb3b 680a 163e 79e0 febc
00000340: 1744 8fbc ba47 74be 8c9a 94bd 9209 9c3c
00000350: 988f d03d 89f5 253e bcdb f83c 306f a8bd
00000360: b44a 0f3d 9122 7ebd 94ce c43d 66bf b83d
00000370: f1ad ddbc 48b6 5a3e 3eb0 4bbd 97c1 da3d
00000380: 0ce5 49be 8c6e c6bc 464e fe3d 9c6b b3bd
00000390: b094 323e a51c 80bd a8da 8e3d 7309 c73d
000003a0: c87e 1cbe 826d 09bd 6567 77be 8020 443e
000003b0: a929 4cbd 5e43 26be e09d 8dbd ec91 b6bd
000003c0: 81d2 07be 8d65 593c ae50 36bd 4cb6 4a3e
000003d0: 90b5 ab3d 6cdf 253d 6b1d cdbd 7f8e 39bd
000003e0: 3e50 373d be27 533e 6b6f 31be f0e5 56be
000003f0: 9417 65be b2c2 813d 6d4c 17bd 70e8 1abd
-0.15674238 -0.09492948 0.23974247 0.13268933 0.078653894 0.13290279 0.14295198 -0.099810585
-0.017813371 0.14678137 -0.1283127 0.21473348 0.03978671 0.11918917 0.10820094 0.21401307
0.11612564 0.1800498 0.17148413 0.024805214 -0.03973315 -0.14690332 -0.16029952 0.031579453
0.1727994 -0.1393484 -0.24202195 0.086669244 0.2020133 -0.022437192 -0.09080762 0.19800152
-0.045912337 -0.13246502 -0.17008859 -0.121943936 -0.13681817 -0.21031238 -0.01951746 0.01279264
0.13405174 -0.21236436 -0.20147522 0.20769972 0.16347773 -0.02495574 0.19439505 0.08779696
0.23867391 0.05810149 0.061367042 0.14399733 0.032608926 -0.025950262 -0.22526102 0.13245045
-0.121259786 -0.058159143 -0.010229418 -0.19517781 -0.21801887 -0.14519733 -0.16941182 0.08918659
0.010613579 -0.08798187 0.13645977 -0.22014265 0.12024608 -0.10160214 0.1805077 -0.12309221
0.07289509 0.15247518 -0.053462908 -0.1801327 -0.23256956 -0.10491446 0.20384349 -0.041941315
0.16229194 0.149365 0.1028056 -0.012345678 0.2010309 0.12676486 0.06097368 0.026767515
-0.19362508 0.060871568 0.11774175 -0.049814872 0.21800831 0.1510008 0.20762722 0.07375469
-0.19298707 0.18096377 0.20100185 0.015302001 0.12024009 -0.019253908 0.17466483 -0.18188517
-0.17543022 0.13949728 -0.036652286 -0.18388595 -0.12684195 -0.05746411 0.13346906 -0.22274409
-0.18644273 -0.1288853 -0.025411833 -0.1845858 0.045809414 -0.081937104 0.18400732 -0.05638247
-0.08960981 -0.14077272 0.14562355 0.12105707 -0.22778419 0.058761965 -0.13501602 -0.08017562
-0.07771682 -0.035664413 0.06053803 -0.07761348 0.07024657 0.19965835 -0.07343499 0.22846504
0.045174304 -0.15627629 0.20622423 0.19421592 0.14874454 -0.093783975 -0.003643429 -0.18334728
-0.1234166 -0.20096923 -0.14094222 0.16393428 0.04205449 -0.0019393605 -0.0015400407 -0.17683437
0.12978952 0.12693788 0.0064050104 0.04508434 -0.1172059 -0.22774102 0.058156252 0.2041263
0.035803974 -0.011680244 -0.049249213 0.10977903 -0.014714257 0.16940974 -0.113189965 -0.22669919
0.061780836 0.09317061 0.03665531 -0.2034043 0.18309057 -0.16871828 0.14556757 0.12123203
0.11160987 -0.21326517 0.121263206 0.088699795 -0.09345245 0.09272224 -0.17865461 0.1242894
-0.080463685 0.04824473 0.1600269 -0.06842555 -0.13364965 -0.1272154 -0.050873354 -0.22293258
0.07271716 -0.18308309 -0.06841007 0.14206307 0.019959124 0.110261425 0.11486545 -0.08833896
-0.09620296 0.0081876945 0.023034794 0.1734624 0.19560339 0.007190738 0.14652407 -0.031112896
-0.017488522 -0.23855487 -0.0725604 0.019047532 0.10183638 0.16206945 0.030378215 -0.08224332
0.03498335 -0.062044684 0.09609714 0.09020881 -0.02706048 0.21358597 -0.049728625 0.106814556
-0.1971628 -0.024222635 0.12417273 -0.08760759 0.17439532 -0.062554635 0.06975299 0.09718599
-0.15282738 -0.0335517 -0.24160536 0.19153023 -0.049844418 -0.16236636 -0.06914878 -0.08914551
-0.13263895 0.0132688405 -0.044510536 0.19796103 0.0838424 0.040496275 -0.10015377 -0.04530191
0.04475426 0.20620629 -0.17327659 -0.20986152 -0.22372276 0.06335963 -0.03693812 -0.037819326

arith.constant7 f4 [32]
00000000: 0000 0000 0000 0000 0000 0000 0000 0000
00000010: 0000 0000 0000 0000 0000 0000 0000 0000
00000020: 0000 0000 0000 0000 0000 0000 0000 0000
00000030: 0000 0000 0000 0000 0000 0000 0000 0000
00000040: 0000 0000 0000 0000 0000 0000 0000 0000
00000050: 0000 0000 0000 0000 0000 0000 0000 0000
00000060: 0000 0000 0000 0000 0000 0000 0000 0000
00000070: 0000 0000 0000 0000 0000 0000 0000 0000
0.0 0.0 0.0 0.0 0.0 0.0 0.0 0.0
0.0 0.0 0.0 0.0 0.0 0.0 0.0 0.0
0.0 0.0 0.0 0.0 0.0 0.0 0.0 0.0
0.0 0.0 0.0 0.0 0.0 0.0 0.0 0.0

arith.constant8 f4 [1, 32]
00000000: f7c2 d8be b087 2dbe d5ed 243e 97b3 9fbe
00000010: 30a9 6ebd db70 4f3e d97f a7be 41c5 ad3e
00000020: a275 d5be 262d 293e 851d 823e 1cc0 6c3e
00000030: 14e1 c4be 2f35 cd3e b405 18be c630 be3c
00000040: eb8c 68be b901 a83e 740f ad3c 03dc 3e3e
00000050: 126d 1c3c f856 c93e 17c7 b83c 1b4a 3abd
00000060: b1b7 433e 0001 b43e 0dc8 d33e c610 b8be
00000070: be14 41be 42f5 3cbe afe4 57bd 9a47 cbbe
-0.42336246 -0.16946292 0.1610635 -0.31191704 -0.05826682 0.20257895 -0.32714728 0.33939555
-0.4169131 0.16521129 0.25413147 0.23120159 -0.3845297 0.40079638 -0.14845926 0.023216616
-0.22710006 0.32813814 0.021125533 0.18638615 0.009547489 0.39324164 0.022555871 -0.04548083
0.19113041 0.35157013 0.41363564 -0.35950297 -0.18855569 -0.18452933 -0.052708324 -0.39703065

arith.constant9 f4 [32, 64]
00000000: 2a0d 723e 7e1a 0c3c d42a 513c 6f4f 30be
00000010: 9150 68be 5ac4 43be 7780 a0bc 8d28 90be
00000020: 49a2 4bbd e569 4dbe 3dcb 4dbe d45d 66be
00000030: 100a 803e 11ad 373e 3d4a 803e 0a4c 01bd
00000040: 626b 97bd 271b 423e 043f b9bc 0db2 b83c
00000050: 4e25 3dbe 5386 b63d 84ea 5fbe cbe0 7d3e
00000060: 9bf5 cb3d d663 f8bc a744 203e 5563 a7bd
00000070: 8160 b0bc 3b35 323d a76f 7d3d 8722 493e
00000080: 8c10 23bd 38ba 11bd 4e9f 523e b2bc 0c3e
00000090: af3e a2bd be48 fabd 5bff ef3d 8a0f 58be
000000a0: 19b5 1a3e 9006 75be 1776 68bd 29f2 aebd
000000b0: 52b5 0e3d 19fa 82be fb7a 50bd 08ef 0dbe
000000c0: 6a95 38be c836 613e c866 0bbd 8b72 5dbc
000000d0: a6db 9abc 56df 253e f7ae 6fbe 04ea 20be
000000e0: d49d aabd cd22 633e 1033 78be 6a03 bcbd
000000f0: c867 10be 56b5 273e a9b6 9eba fe6e 9bbd
00000100: 9db3 58be 8418 2f3e 7d9f 453e debb 143e
00000110: 3912 7ebe af8d 423e c4f4 5c3e 458e 10be
00000120: ea0c 67be 7e90 cf3d 0d94 c73d b288 8cbc
00000130: 191b 0f3e 6662 08be 3e49 bd3d 67a8 553e
00000140: f4c4 0dbc 0571 56be 9cd8 083e 07b1 953d
00000150: 624e e8bd 6b7e 0cbe ef36 3c3d 4e0e 94bd
00000160: 0565 373d 44a5 34be f3ec 793d eea5 96bc
00000170: c227 433e 2c6c 40bc a83c 353e afc5 4a3e
00000180: 9005 c7bd 8ab9 4bbe 3ac8 fdbd 3e4a 8b3e
00000190: 87c3 2ebd 2b00 1abd 8b4f a23d ad07 533e
000001a0: 336a 8a3c 3345 8abd 2e0d 47bd 0b6f d63d
000001b0: 3933 14be 9a2a 0f3e bc93 02bb f929 783e
000001c0: cbb4 273e a981 4e3b 7208 e33c 33df abbc
000001d0: 61e1 543e a0cf 5ebe 7963 8cbe 4140 453e
000001e0: 362e b7bd d3f6 c33c 1411 80be 4995 4abe
000001f0: fb7a df3d a377 323e 2d8b 24bd 506d 57bd
00000200: 67d5 f33d a3e7 b23d f7f9 e8bc 2952 843e
00000210: a8f8 863e 03b4 d13d 7411 493e b836 3b3e
00000220: 1307 793e 5fea 4d3e cb00 513c e60f 73be
00000230: 13e5 273e 182c f23d c01a 58be 4510 67be
00000240: e013 65be d218 fd3d 1c07 b93d c7bc 7abd
00000250: 6190 603d 2242 8dbe f9ba 4fbd 66e2 c3bd
00000260: 93ba 43be c844 2dbe e08a 753e c2ae 773c
00000270: a52f 9bbd 48ba 61ba ec9f 3ebe 982c 693e
00000280: ba2b 893d fb40 863c 6472 013e 4488 4cbe
00000290: 6e59 423e 1c81 26bd baca 80bd e031 7dbe
000002a0: abed 6cbe 1f38 8c3d 5216 adbd f738 86be
000002b0: 90c1 503e 97f0 693e eea4 0abe 44a2 88be
000002c0: 5c18 49bd 45b0 313e b913 623e 8597 6a3e
000002d0: 5c0b c13b 0886 e5bd 2302 313e 955b a7bd
000002e0: 0b5a 023d fbf4 b7bd c8b2 64be 50f8 b03c
000002f0: 3a7c 513e 8f29 86be 5b53 013e bff9 173e
00000300: a174 803e 5113 9d3b eab8 3abd 91c3 80be
00000310: 6005 f23d d412 423e 2b26 c23d ac65 8d3d
00000320: 03dc 0dbe 581c 563e 0119 f93d 0def 49be
00000330: e31a 7e3e 97a7 e1bd cb6f a8bd a6bf 973d
00000340: 7bf8 3b3e f615 c43d 1780 0abe bcf1 6f3e
00000350: 0242 0cbe 7cef 8bbd 8bbe 80bd a65a d83d
00000360: 87cf 123c 37e3 2a3e 4b1a 2e3e 1b7f 763e
00000370: 773c 513e 3ded 11bc 55b5 483e 2d9a 3e3e
00000380: d169 1f3d 04fa 6c3e 1f79 77be 4d5a f83d
00000390: 6cb8 e4bd b248 a13c 34fb 7c3e 7e79 55be
000003a0: 4a20 9b3d b8a6 66be 73e4 643e bba7 af3d
000003b0: 68ec 9ebd d45b 61be 40d2 2bbc 0f87 253c
000003c0: d234 63bd dc6f 803c 14ee 15be 2e76 613d
000003d0: ff5b fe3d 9e27 cabd b44a 2dbe a768 0cbe
000003e0: 03b2 73bd 7d22 413d ec9c f7bd b3d7 ad3d
000003f0: bd50 bebc a128 233e e9f2 72be d341 dcbd
0.23637834 0.008551238 0.012766559 -0.17217802 -0.22686984 -0.19117871 -0.019592507 -0.28155938
-0.049715314 -0.20059927 -0.2009706 -0.2249673 0.25007677 0.17937113 0.2505664 -0.031566657
-0.073935285 0.1895567 -0.022613056 0.022545839 -0.18471262 0.08912339 -0.21866804 0.24792783
0.09958955 -0.030321043 0.15651189 -0.08173243 -0.021530392 0.043507796 0.061874058 0.19642077
-0.039810702 -0.035577983 0.20568582 0.13743857 -0.07922112 -0.12220906 0.11718627 -0.21099678
0.15108146 -0.23928285 -0.056753244 -0.08542282 0.03484089 -0.25581434 -0.050898533 -0.13860714
-0.18025747 0.21993554 -0.034033567 -0.013516079 -0.018903565 0.16198477 -0.23406588 -0.1571427
-0.083308846 0.22181244 -0.24238229 -0.09180339 -0.1410209 0.16377768 -0.001210888 -0.075895295
-0.21162267 0.17099196 0.19299121 0.1452479 -0.24811639 0.1899936 0.21577746 -0.14116772
-0.2256352 0.101349816 0.09745035 -0.017155025 0.1397518 -0.13318786 0.092424855 0.20865022
-0.008652914 -0.20941551 0.1336388 0.07309156 -0.11343075 -0.137201 0.045950826 -0.07229291
0.044774074 -0.17641169 0.061016988 -0.018389668 0.19058135 -0.01174454 0.1769892 0.19801973
-0.09717858 -0.19894996 -0.12391706 0.2720508 -0.04266694 -0.037597816 0.07925328 0.20608397
0.016896343 -0.0675148 -0.048596554 0.104703985 -0.14472665 0.13981095 -0.0019924482 0.24234761
0.16377561 0.003151039 0.027713988 -0.020980453 0.207891 -0.2175889 -0.27419642 0.19262792
-0.08944361 0.023921406 -0.2501303 -0.1978351 0.109121285 0.1742845 -0.04017179 -0.052594483
0.11905938 0.087355874 -0.028439505 0.25843933 0.26361585 0.10239413 0.19635564 0.18282592
0.24319105 0.20108937 0.012756537 -0.23736534 0.16395979 0.118248165 -0.21103954 -0.225648
-0.22370863 0.1235825 0.09034559 -0.06121519 0.05482519 -0.27589518 -0.05071542 -0.095646665
-0.19114141 -0.16920769 0.23978758 0.015117349 -0.07577447 -0.0008610827 -0.18615693 0.22770917
0.06697793 0.016388407 0.12641293 -0.19973856 0.18979427 -0.040650472 -0.06288667 -0.24726057
-0.23137538 0.06846642 -0.08451523 -0.26215336 0.20386338 0.22845684 -0.13539478 -0.266863
-0.049095497 0.17352398 0.22077836 0.22909363 0.0058912467 -0.11207205 0.17285971 -0.08171765
0.031824153 -0.08982273 -0.22333825 0.02160278 0.20457545 -0.26203582 0.12629454 0.14841364
0.2508898 0.0047935625 -0.045586504 -0.25149205 0.118174314 0.18952495 0.09479936 0.06904158
-0.13853459 0.2090925 0.12162972 -0.19720097 0.24814944 -0.11018293 -0.08224448 0.07409601
0.18356507 0.09574501 -0.13525425 0.23432058 -0.13697055 -0.068327874 -0.06286343 0.10564165
0.008960611 0.16688238 0.17002217 0.24071924 0.20433222 -0.00890666 0.19600423 0.18613501
0.038919274 0.23142248 -0.24167298 0.121265985 -0.11167988 0.019687984 0.24705201 -0.20847127
0.07574518 -0.22524536 0.22352771 0.08576914 -0.07759935 -0.22007686 -0.010487139 0.010103001
-0.055470295 0.015678339 -0.14641601 0.055044346 0.124198906 -0.09870838 -0.16923028 -0.13711797
-0.059495937 0.04715203 -0.12090477 0.08488407 -0.023231858 0.15933467 -0.23725475 -0.107547425

arith.constant10 f4 [1, 1, 64]
00000000: 0000 0000 0000 0000 0000 0000 0000 0000
00000010: 0000 0000 0000 0000 0000 0000 0000 0000
00000020: 0000 0000 0000 0000 0000 0000 0000 0000
00000030: 0000 0000 0000 0000 0000 0000 0000 0000
00000040: 0000 0000 0000 0000 0000 0000 0000 0000
00000050: 0000 0000 0000 0000 0000 0000 0000 0000
00000060: 0000 0000 0000 0000 0000 0000 0000 0000
00000070: 0000 0000 0000 0000 0000 0000 0000 0000
00000080: 0000 0000 0000 0000 0000 0000 0000 0000
00000090: 0000 0000 0000 0000 0000 0000 0000 0000
000000a0: 0000 0000 0000 0000 0000 0000 0000 0000
000000b0: 0000 0000 0000 0000 0000 0000 0000 0000
000000c0: 0000 0000 0000 0000 0000 0000 0000 0000
000000d0: 0000 0000 0000 0000 0000 0000 0000 0000
000000e0: 0000 0000 0000 0000 0000 0000 0000 0000
000000f0: 0000 0000 0000 0000 0000 0000 0000 0000
0.0 0.0 0.0 0.0 0.0 0.0 0.0 0.0
0.0 0.0 0.0 0.0 0.0 0.0 0.0 0.0
0.0 0.0 0.0 0.0 0.0 0.0 0.0 0.0
0.0 0.0 0.0 0.0 0.0 0.0 0.0 0.0
0.0 0.0 0.0 0.0 0.0 0.0 0.0 0.0
0.0 0.0 0.0 0.0 0.0 0.0 0.0 0.0
0.0 0.0 0.0 0.0 0.0 0.0 0.0 0.0
0.0 0.0 0.0 0.0 0.0 0.0 0.0 0.0

arith.constant11 f4 [1, 1, 32]
00000000: 5810 27bc a907 b53c b73d 2c3c 205d ee38
00000010: 9cc1 513c e9ea a03c 2a84 c6bc f903 b0bc
00000020: 8a89 acbc da3d 82bb 51d3 393c f836 9d3c
00000030: 0539 db3b d206 f5bb 7610 a73b 1140 4d3c
00000040: 24c3 913c ed57 223b 42ac 8d3c 48f5 173c
00000050: 45f3 3e3c 0f2d 4fbb 45f5 9b3c a373 763c
00000060: 8860 66bc 3e89 363c 7fd7 9abb 4cf1 8fbc
00000070: 29c3 c63c 71de 87bc e82c 973c 73ed a73c
-0.010196768 0.02209838 0.010512761 0.0001136607 0.012802508 0.019643264 -0.024232943 -0.02148627
-0.021061677 -0.0039746584 0.011341886 0.01919125 0.006690147 -0.0074776197 0.005098398 0.012527482
0.017793246 0.0024771646 0.017294053 0.009274788 0.01165468 -0.003161255 0.019037852 0.015042218
-0.014061101 0.0111411195 -0.004725396 -0.017571114 0.024262981 -0.01658556 0.01845403 0.020498967

arith.constant12 f4 [32]
00000000: 1ac9 a5be dee7 40be bdd6 98be 6dd8 dfbe
00000010: 2415 4bbe e2d4 7ebe d42b e8be ba0c 4abe
00000020: e30c febe 2e25 52be 5188 6fbe e39e 61be
00000030: aef2 e7bd edf3 08bf 5e7a 09bf 1a1e 82be
00000040: d0ca 37be d356 52be d3e2 5abe 4371 7ebe
00000050: 8099 88be 7026 b2be bf72 15bf f1c4 36be
00000060: 5407 0ebe dab0 8fbe 6be3 57be b7ff a9be
00000070: ed26 66be 6569 adbe af81 87be 6954 39be
-0.3237999 -0.1883845 -0.29851332 -0.43719807 -0.19832283 -0.24885896 -0.45345938 -0.19731417
-0.49619207 -0.20521995 -0.23391844 -0.22033267 -0.11325584 -0.534972 -0.5370234 -0.2541359
-0.1794846 -0.20540933 -0.21375589 -0.24847893 -0.2667961 -0.3479495 -0.58378214 -0.17848565
-0.13869983 -0.28064615 -0.21082847 -0.33202907 -0.22475787 -0.33869472 -0.26466128 -0.18098606

arith.constant13 f4 [32]
00000000: 0a00 c83e cf9b 053f 7311 f03e fa3e ac3e
00000010: 63b1 0e3f d35b 013f 79c8 713e 099f f43e
00000020: 5bf6 643e 993a 0b3f 4a56 e83e e398 2b3f
00000030: da17 623f 23b3 c83e 3f37 bb3e 48bb 023f
00000040: 3c12 143f 4fde e73e b954 253f f31b fd3e
00000050: fe5e 283f cb5a bf3e e8d9 5a3e a6f6 333f
00000060: fd78 ee3e 0247 b73e 7ad3 f23e 8448 973e
00000070: 4421 313f f0af a83e 6a25 023f 52f0 1f3f
0.3906253 0.5219087 0.46888313 0.33641797 0.5573942 0.5053074 0.2361163 0.47777584
0.22359602 0.5438629 0.45378333 0.6703016 0.88317645 0.3919917 0.36565587 0.5106702
0.57840323 0.45286795 0.645824 0.49435386 0.65769947 0.37373957 0.21372187 0.7029823
0.46576682 0.35796362 0.4742697 0.29547513 0.69191384 0.3294673 0.5083834 0.62476075

arith.constant14 f4 [32]
00000000: b80e da3c 1558 e43c f618 193d ed3f cb3c
00000010: 3d56 423c 8b14 823c ec4d df3c efb8 a63c
00000020: 5166 aa3c 964a e73c 6775 1b3d 522f 033c
00000030: fdcc cc3b 1150 063d 8c92 a83c 8163 2cbb
00000040: 89fc 003c 01a3 0c3d aa31 3bbb bda5 883c
00000050: 42ac d8bc 7ad9 883c 113a 5ebc b165 35bc
00000060: d6c6 fa3c 2d0f fb3c 721e aa3c efab e03c
00000070: f90c fbbc c0c6 f83c 60f6 0a3d aead 40bc
0.026618347 0.027874032 0.03737732 0.024810756 0.011861381 0.015878936 0.027258836 0.020351855
0.020800741 0.028233808 0.03795376 0.0080068875 0.0062500224 0.0327912 0.020577691 -0.0026304426
0.007872709 0.03433514 -0.0028563538 0.016680593 -0.026449326 0.016705263 -0.013563649 -0.011071608
0.03061239 0.030646885 0.02076647 0.027425734 -0.030645834 0.030368209 0.033926368 -0.011760158

arith.constant17 f4 [1, 64]
00000000: 0000 0000 0000 0000 0000 0000 0000 0000
00000010: 0000 0000 0000 0000 0000 0000 0000 0000
00000020: 0000 0000 0000 0000 0000 0000 0000 0000
00000030: 0000 0000 0000 0000 0000 0000 0000 0000
00000040: 0000 0000 0000 0000 0000 0000 0000 0000
00000050: 0000 0000 0000 0000 0000 0000 0000 0000
00000060: 0000 0000 0000 0000 0000 0000 0000 0000
00000070: 0000 0000 0000 0000 0000 0000 0000 0000
00000080: 0000 0000 0000 0000 0000 0000 0000 0000
00000090: 0000 0000 0000 0000 0000 0000 0000 0000
000000a0: 0000 0000 0000 0000 0000 0000 0000 0000
000000b0: 0000 0000 0000 0000 0000 0000 0000 0000
000000c0: 0000 0000 0000 0000 0000 0000 0000 0000
000000d0: 0000 0000 0000 0000 0000 0000 0000 0000
000000e0: 0000 0000 0000 0000 0000 0000 0000 0000
000000f0: 0000 0000 0000 0000 0000 0000 0000 0000
0.0 0.0 0.0 0.0 0.0 0.0 0.0 0.0
0.0 0.0 0.0 0.0 0.0 0.0 0.0 0.0
0.0 0.0 0.0 0.0 0.0 0.0 0.0 0.0
0.0 0.0 0.0 0.0 0.0 0.0 0.0 0.0
0.0 0.0 0.0 0.0 0.0 0.0 0.0 0.0
0.0 0.0 0.0 0.0 0.0 0.0 0.0 0.0
0.0 0.0 0.0 0.0 0.0 0.0 0.0 0.0
0.0 0.0 0.0 0.0 0.0 0.0 0.0 0.0

arith.constant23 f4 [256, 32]
00000000: e1c0 2fbc 9038 b0bc 9937 883d 88ad 063e
00000010: 51d0 153d b6ef 89bd 3985 ef3d b01e 083d
00000020: 9f58 16bc 6c78 bdbd ea24 153e 2c44 d63d
00000030: 4bce 833d 6eae b23d 7305 843d 0ff0 3bbc
00000040: 6729 9d3d b5cf 903d 42bd 1f3a 8036 27be
00000050: d102 1abe c167 8cbd 6c4b 8fbb 5b0d db3d
00000060: 41c1 9cbd 61e1 acbd e454 0cbd 861a 01be
00000070: e7dd 4b3d f253 17be 2a69 a9bc 3894 d9bd
00000080: 074a a63d dd03 dcbc 924c 1fbe cec1 d13d
00000090: 66a5 07be a733 853d 6b2c 343d b0b2 5cbd
000000a0: fdb0 b6bd d712 1bbd 2aba 683d 0fa2 f83d
000000b0: 7eea 0ebe b571 18be b12e babd 2bdc 81bd
000000c0: 06cf 96bc 5cb0 99bd a0b8 3d3d 6e71 59bd
000000d0: a274 04bd 5356 01be e9fd d5bd 46f6 50bd
000000e0: 36a7 b83d b41d 87bd ff55 adbd adcd 873d
000000f0: 4871 00be 2ce4 3f3d c2c9 b43d f426 f83c
00000100: 6d08 643d f8a9 d7bd ff3e 4c3c 07dd 933d
00000110: eaf1 853c e579 debd d796 2dbd 517e a53c
00000120: 701e e53d 9352 893d c528 283d bf59 8ebd
00000130: 3261 e33d 0c4a e83d c6c2 193d c297 553d
00000140: 2632 203d 8208 e63c 38bc 773d e1d8 1f3d
00000150: 006d b9bd 67d4 48bd d580 09bd c2af ef3c
00000160: ee7a cf3d 21b1 a3bd f27f e13c efea 9d3d
00000170: c3c2 a33d 148a a83c 68b5 61bc e74a a73c
00000180: aefa 743c 94ee b63c cbb9 0d3d 27ee aabd
00000190: 696c 223c 0c0d 183e 24d3 f5bd a40c dc3d
000001a0: f8ee d0bd 4e42 373d 79db cabd 8c51 923c
000001b0: a6c5 f43d 8c3b 563d f02d 843c 38a6 dfbd
000001c0: 977f 3cbc 15cf b3bc e42e 0e3c 6f20 fabc
000001d0: 51de eabd 3229 d6bb 467f 823d 47b8 e7bc
000001e0: 2602 273c 8b83 fa3d c2b4 28bd f128 0f3e
000001f0: 95b9 053e b926 95bd 33ae 323c 3ee8 1c3e
00000200: 45a9 053e ac7b bebc 1fea 183e 47aa e0bd
00000210: 6976 e7bb 44ed cdbd 55a6 f3bd 8324 b7bd
00000220: 2ace b8bc 0fb2 cc3d 9a92 2cbd cc6f 72bd
00000230: c2e2 073e 09cf 3bbd 9408 cc3b 31a4 583d
00000240: aeef 883d f8b4 2abc 2858 ce3d ca42 92bd
00000250: 463a c5bd eb94 a53c d97e 003e 0bd9 293d
00000260: 23c0 6c3d 519b 10be a52f e43d 365f 5a3d
00000270: 7620 1d3e 2e63 003d 0c7c 34bd df57 0abe
00000280: b493 d7bc 8fa9 d93c b742 97bd 8c17 02be
00000290: 0719 643c 906a d8bd d1be fdbd b823 10be
000002a0: 92bc 033e a595 df3d dab7 bf3d 2554 c53d
000002b0: d0ee 953d d301 d8bd f97a 9bbd 0af3 04bb
000002c0: 7d52 963d b9b0 a73d 158b ebbd 0e14 bb3d
000002d0: aa29 70bd 5613 07bd 4020 173e 06eb 4fbd
000002e0: 96dc 703d 7eb0 753d cc2f 03be fd7a c93d
000002f0: bd56 d9b9 9821 b73d d9bc d3bd 5f1a b9bd
00000300: 0c1a b93d ba0b d53d 881f aabc f78e 5b3c
00000310: 4542 243e b596 cfbd 5301 0ebe e4ec a1bd
00000320: 9557 3b3d c646 8bbd 174e f1bd 7468 06be
00000330: c7db 5d3d 2cd5 e03c 5dbc a4bd c8d4 d7bc
00000340: db1b e8bc 6890 e43c be6f 053e bc64 b73d
00000350: 0ee0 a43d 3e5e c3bc f138 0fbe 401a 313d
00000360: 0776 083d 3c9b bebc 415d 06be b6ef 0bbd
00000370: 51ee bd3d 6e9f 993d 50ea b3bb fc8f a5bd
00000380: d5a7 0a3e d4e6 2ebb 6653 44bd 4e9e d33d
00000390: 657f 013e 69a5 d23d efe1 d33c 5544 14bd
000003a0: 2db6 e13c e246 90bd 9ff6 d53d 95fa 33bd
000003b0: b0c6 efbd a4ea 403d 79f1 a6bd 2789 af3b
000003c0: d320 19bc d0df b0bd b94a ec3d 424a b33d
000003d0: 07bf 01be 296e 16bb 526b 6ebd 9c5d 013e
000003e0: 113a 903d 0ec6 dfbd 04dc 62bd 105b ba3d
000003f0: 1f0e d7bd f3c7 073e 36d6 bdbd e6b1 45bd
-0.010727138 -0.021511346 0.066512294 0.13152134 0.03657562 -0.06735174 0.11695332 0.03323239
-0.009176402 -0.09251484 0.14564863 0.104622215 0.06435832 0.08724676 0.06446352 -0.011470809
0.076739125 0.07070867 0.000609357 -0.16329384 -0.15040137 -0.06855727 -0.0043730047 0.10695907
-0.07654048 -0.08441425 -0.034260646 -0.12607774 0.04977217 -0.14778116 -0.020680029 -0.106239736
0.08119588 -0.02685731 -0.15556553 0.102420434 -0.13246688 0.065039925 0.043987673 -0.053881347
-0.089204766 -0.037859764 0.056818165 0.12140285 -0.13956639 -0.14887126 -0.09090937 -0.06340822
-0.018409263 -0.07504341 0.04631865 -0.05308669 -0.032337792 -0.12630586 -0.1044882 -0.051016115
0.09016268 -0.06597462 -0.08463668 0.066310264 -0.12543213 0.04684846 0.08827545 0.030292012
0.055672098 -0.10530466 0.012466191 0.07219892 0.016350705 -0.10863093 -0.04238018 0.020201834
0.11187446 0.06705203 0.041054506 -0.069507115 0.11102523 0.11342248 0.037539266 0.05214668
0.039110325 0.028080229 0.060482234 0.03902519 -0.09053993 -0.049030688 -0.03357013 0.029258613
0.10130869 -0.07992769 0.02752683 0.07710826 0.07996132 0.020573653 -0.013776161 0.020421458
0.014952345 0.02233056 0.034601014 -0.08346205 0.009913542 0.14848727 -0.120031625 0.107445985
-0.1020183 0.044740967 -0.09905142 0.01786115 0.11951761 0.052302882 0.016135186 -0.109203756
-0.011505029 -0.02194933 0.008678172 -0.030533044 -0.11468185 -0.0065356726 0.06371932 -0.028286112
0.010193383 0.12232121 -0.04118801 0.13980462 0.13059075 -0.072827764 0.01090579 0.15322968
0.13052852 -0.02325233 0.1493306 -0.10969978 -0.007063676 -0.100550205 -0.1189696 -0.08942511
-0.022559244 0.099948995 -0.042131998 -0.05918865 0.13270095 -0.04585174 0.0062266085 0.05289096
0.0668634 -0.010419123 0.10075408 -0.07141645 -0.096302554 0.020212611 0.12548389 0.041466754
0.057800423 -0.14121749 0.111419 0.053313456 0.15344414 0.031344585 -0.044063613 -0.13510083
-0.026315548 0.02657011 -0.07385772 -0.12704295 0.013921983 -0.105672 -0.12389911 -0.14076126
0.12864903 0.10917214 0.09361239 0.0963519 0.073209405 -0.10547223 -0.075918145 -0.0020286464
0.07339952 0.08188004 -0.11501137 0.091346845 -0.058633484 -0.032977425 0.14758396 -0.050761245
0.058804117 0.05998277 -0.12811202 0.09837911 -0.0004145409 0.089419544 -0.10338754 -0.09038233
0.09038171 0.10402627 -0.020766988 0.013400785 0.16040905 -0.10136167 -0.13867693 -0.079065114
0.04573782 -0.06800608 -0.117824726 -0.13125783 0.054164674 0.027445398 -0.0804374 -0.02634658
-0.028333595 0.02790089 0.13030908 0.089547604 0.080505475 -0.02384865 -0.13986565 0.043237925
0.033315685 -0.02326738 -0.13121511 -0.034164153 0.09273971 0.07501112 -0.0054905787 -0.080841035
0.13540585 -0.0026687877 -0.047931097 0.103329286 0.12646253 0.10285456 0.02586457 -0.03619798
0.027552688 -0.0704477 0.1044743 -0.043940146 -0.117078185 0.04709877 -0.08151526 0.005356926
-0.009346205 -0.08636439 0.1153769 0.08754398 -0.12670527 -0.0022953844 -0.058207817 0.12633365
0.07042325 -0.10926448 -0.055385605 0.090994 -0.1050074 0.13259868 -0.09269373 -0.04826536

arith.constant24 f4 [256, 64]
00000000: 3da4 923d a8db 66bd c115 863d 14c0 e83c
00000010: 54f2 dbbc 4bbc de3d 59e8 09be b68d c0bd
00000020: 5bf7 22bb 7f92 9f3b af31 0b3c 833e 06bd
00000030: 088f c0bd dba0 16bd 652a 21bd ba9d 9abc
00000040: d220 123c 5955 88bd 7fc0 cabd a748 7cbd
00000050: d95a 96bd 71e3 843d a184 9c3b b5c8 0a3e
00000060: 19b6 003d 25e8 243e 10f8 783d 2a72 fbbc
00000070: 1490 763b fb1e 62bb 4fcc 793d cc6f dbbd
00000080: c49c 933d 4a4f 593d 6bd3 783d 79ca db3c
00000090: 915d 9ebd 5288 f83c 1594 99bd 0c0e 61bd
000000a0: 8297 f6bd 2c5a 4cbd f0c8 c53c a69d a83d
000000b0: a6ab 2bbd e17e 0abd 84a2 11bc f78f 13be
000000c0: eb9f 163d c325 6a3c 258f 373c 04e1 a3bd
000000d0: c3af 8b3c a7f2 4e3d da38 8fbc 90b7 843d
000000e0: 513e a13d f8e8 29bd 7f0f 33bd a0ce 313d
000000f0: 7db2 97bd b4e0 a93d 90a0 3d3d 9bd8 bb3c
00000100: 01a7 d13d 1951 efbc a419 05be 1c39 8c3d
00000110: 713b d8bd e80b 07bd 2071 033c a91a 84bc
00000120: e1c4 f3bc 3217 be3d d3ab bbbc 9245 0a3d
00000130: a17d 62bc 9f7e 92bd be1c 91bc 61d1 5e3c
00000140: 453a e93c 66f5 99ba b3d4 3ebd 41e6 a5bc
00000150: 4104 7fbd c3be 5cbd db66 cdbd a4a6 0ebe
00000160: 2e0c aa3c 7e5d 0cbe 10ab 2c3c e23c 643c
00000170: 5f47 383e 3e5d eb3c 8219 65bc 6f66 9c3d
00000180: 5192 7a3c 7054 aa3d d672 073e 4159 39bd
00000190: 58c9 a1bd 74c6 da3c 729d 91bc 5494 e33c
000001a0: 32bf f53d 6ce6 183d 9bb7 d53b 5f16 6b3d
000001b0: 4ac9 473e 553d 793d a115 c93d 8b1b 12be
000001c0: cd15 cdbc f757 3a3d adb2 47ba a341 f23c
000001d0: d13c e2ba b90c 8a3d 13f3 3c3e 5992 183d
000001e0: 6cef 3e3d 630b 833d 5335 133d 056b 083e
000001f0: bc59 b83c c2ca ad3d a256 04bc 99a9 c13c
00000200: 29fc 4f3c f525 ce3d 9652 ddbd 8668 523c
00000210: 0def 833d 989e b43d 6e2c db3d fd0f 783b
00000220: 5473 fc3d 2377 7bbd 051f 27bd c5c1 e0bc
00000230: ee85 0cbe 05be efbd f737 00be 394f 11be
00000240: db2d 3e3c 72ff 883d 61ed 34bc 11df aabd
00000250: 7bc5 44bd 1886 573d 9ec2 03be 9d1d c43a
00000260: 1cd7 953d b99f 39bd 9af5 acbd 14a1 babd
00000270: 3747 80bc 4801 9a3c c71d 223d c45b 103d
00000280: b2fa bd3d ee6e 20bc 1f1c c8bd bbb6 293d
00000290: 2d29 a3bb a85c b4bb 0968 0f3b c003 cabb
000002a0: ce59 aa3c e2d7 183e 0888 a2ba 6979 9bbd
000002b0: 6289 3a3d 6bf9 9d3c 1916 1e3e 74f2 3a3b
000002c0: cfe1 1d3d a78f 06bc e05f a13d 9861 febc
000002d0: 5cd6 193d cc13 9f3d efd2 cc3c 8861 43bb
000002e0: fa23 a1bb ac0c d8bc ceb2 ac3c 2501 a63c
000002f0: fdc0 403c 1bc8 7f3d ca8e bd3c 47a2 b43d
00000300: 6b3b 113e 53e1 febd 9244 dabc f7f3 50bd
00000310: ba70 1bbd f6e5 ccbd 3c25 583d f3ac ddbd
00000320: db7c 9b3d a3ac 123d 767b 713d 9b15 a7bb
00000330: abca 4a3d 2cd7 273b 324a 95bd cd4a 81bd
00000340: 6831 24bd fb07 683d 73ce c43d 8c69 fc3c
00000350: 70cf 6cbc 837e 63bd e83b 02bb c3ea 02bd
00000360: 9849 0abd 7395 81bd b2d0 8b3d ccdf 9b3d
00000370: b59a b7bd bf48 463d 7f1a 3ebd 3e71 833c
00000380: e044 68bd 56ef 0a3d 1ad1 aabd 04bb b5bd
00000390: 0c62 1fbc a0bc 773c 819a 67bd 08c3 c63b
000003a0: e99b fcbc 3c69 943d e5ed 863d 1331 fdbc
000003b0: 51c4 60bc 9812 c8bb c067 243e 62ca df3c
000003c0: a755 ffbc df89 b13d b288 aabd 4a6c d23d
000003d0: 8fa6 ab3d 0c78 4d3c c8fb 733c ec55 abbc
000003e0: 732c 06bd d17d ab3c 0135 4e3d 2e84 23bd
000003f0: f3b2 37bd c5ff 9f3b a682 d9bd 986c b53c
0.07160232 -0.056361824 0.06547118 0.028411902 -0.02684895 0.10875758 -0.1346754 -0.09402029
-0.0024866674 0.0048697586 0.008495732 -0.03277446 -0.09402281 -0.036774497 -0.03934707 -0.018874038
0.008918958 -0.06656904 -0.09899997 -0.061592724 -0.073415466 0.064886935 0.004776553 0.13553126
0.03142366 0.16104181 0.060783446 -0.030694086 0.0037622498 -0.003450333 0.06098586 -0.10714683
0.07207635 0.05305413 0.0607485 0.026829945 -0.0773269 0.03033844 -0.074989475 -0.054945037
-0.120406166 -0.049890682 0.024143666 0.08233194 -0.041911744 -0.033812407 -0.008888844 -0.14410387
0.036773603 0.01429123 0.011203562 -0.08001903 0.017051583 0.05052438 -0.017483164 0.06480324
0.07873214 -0.041481942 -0.04371595 0.043409944 -0.07407091 0.08294812 0.046295702 0.022930434
0.102369316 -0.029213475 -0.12998062 0.0684683 -0.105582125 -0.03297034 0.008022577 -0.016125994
-0.029756965 0.09281768 -0.02290908 0.033757754 -0.013823898 -0.07153057 -0.0177139 0.0135997245
0.028470168 -0.0011746108 -0.046589565 -0.020251395 -0.062259916 -0.053892862 -0.10029384 -0.13930756
0.02075776 -0.1370754 0.010538831 0.013930531 0.17995976 0.028730985 -0.013983132 0.07636725
0.015293674 0.083168864 0.132274 -0.045251135 -0.078997314 0.026705958 -0.017775271 0.02778069
0.11999358 0.037329122 0.0065221316 0.05739438 0.1951038 0.060849506 0.098185785 -0.1426832
-0.02503481 0.045494046 -0.00076178723 0.029572314 -0.0017260556 0.06740708 0.184521 0.037248943
0.04661505 0.06398656 0.035939526 0.13322075 0.022503726 0.084859386 -0.0080772955 0.02364044
0.012694397 0.100658335 -0.10806768 0.012842303 0.0644208 0.08819312 0.10701834 0.0037851327
0.123266846 -0.061392915 -0.040801067 -0.027436147 -0.13722965 -0.11706165 -0.12521349 -0.14190377
0.0116076125 0.06689347 -0.011042924 -0.08343328 -0.048039895 0.052618116 -0.1286721 0.0014962439
0.073164195 -0.04531834 -0.08445282 -0.091127545 -0.015658958 0.01879944 0.03957918 0.035243765
0.09276332 -0.009792073 -0.09770989 0.04143403 -0.004979274 -0.0055042095 0.0021882078 -0.006164998
0.020794775 0.14926103 -0.001240016 -0.075915165 0.045541175 0.01928397 0.15438117 0.002852586
0.038545426 -0.00821296 0.07879615 -0.031052396 0.037557945 0.07767448 0.025002925 -0.0029812772
-0.004917619 -0.02637323 0.021081354 0.020264218 0.011764762 0.062446695 0.023139376 0.088200144
0.14182822 -0.12445321 -0.026644025 -0.051013913 -0.0379493 -0.10004799 0.052769884 -0.10824003
0.07592174 0.03580917 0.058955632 -0.005099011 0.049509685 0.002561043 -0.07289542 -0.06313095
-0.04008618 0.056648236 0.096096896 0.030812047 -0.014453754 -0.055540573 -0.0019872133 -0.031962167
-0.03376159 -0.06327333 0.06826915 0.07611045 -0.08965055 0.04840922 -0.046411987 0.016045209
-0.05670631 0.033919655 -0.08340664 -0.08873561 -0.009727966 0.015120655 -0.05654383 0.00606573
-0.030836063 0.07246634 0.065883435 -0.03090719 -0.0137186805 -0.006105732 0.16055202 0.027318183
-0.031168772 0.08668875 -0.08326854 0.10274561 0.08381378 0.012540828 0.014891572 -0.020914994
-0.032757234 0.020934017 0.050343517 -0.03992098 -0.044848394 0.004882785 -0.10620622 0.022146508

sequential_1/lstm_1/while/lstm_cell_1/add_1/ReadVariableOp f4 [256]
00000000: 34a7 c63c dd92 4d3c 34a2 9c3c 5769 223d
00000010: 521f 173d 5e84 f63b 397b 1d3d a950 2b3d
00000020: 2953 b23c de04 163d 628e bb3a cbf5 c1bb
00000030: e2ea e93c c20f 8f3c 03a9 d83c 0051 0abc
00000040: edb6 433c f943 6a3c bfb8 1e3d d2cc a83b
00000050: 9503 273d 2009 ea3c e38d 8b3b 95f1 883c
00000060: 01ff 143d 172a 033d d976 ca3c 636c 953c
00000070: b347 673b 452d 053d ec3f 0b3d dffc 26ba
00000080: 3619 053d 24b7 9b3c dcb2 053d 918d fa3c
00000090: 4180 1c3d 0435 af3c eaec fe3c 1aaa e23c
000000a0: 57d7 ad3b 61d8 143d c167 c63c c27b 2a3c
000000b0: 6375 f93c deb5 143d 40fb aa3c 5c59 b33c
000000c0: 59a8 113d be2f a23c 651e e73c e3b5 1f3d
000000d0: 49e4 db3c 6f73 cc3c 879a de3c 88ce ea3b
000000e0: f42e 043d 0da9 9c3b 82c3 d63c 6508 033d
000000f0: bd04 fdbb ec58 833c 7361 053d 943f 953c
00000100: c7e6 823f 4a78 813f 30d1 803f 6db0 833f
00000110: 51dc 843f ada0 803f 3dc8 843f 583d 853f
00000120: 6a8d 833f 81b6 843f 1522 7f3f 3228 823f
00000130: 7f86 843f eabe 823f 2730 833f 3428 823f
00000140: c627 833f 4e04 823f bfb8 853f 01fd 7d3f
00000150: c869 853f d0af 833f fb6b 823f 5fbd 823f
00000160: e5e3 843f ba3b 853f 3a3d 833f b8bf 813f
00000170: 7db7 803f 0355 843f 674a 843f 54ba 7f3f
00000180: e442 833f cc05 833f 94e5 823f 4b5d 843f
00000190: 3e31 853f 0b01 833f 4c9d 843f 656e 833f
000001a0: b202 843f 52a6 843f 4f19 823f b825 843f
000001b0: 05dd 833f 8414 843f 72ca 813f ba08 833f
000001c0: 628c 853f a0ba 823f 4268 833f bd27 853f
000001d0: 3b56 843f 525a 843f 38df 833f 1ca6 803f
000001e0: 136b 843f 2e75 823f d7e9 833f 28f0 823f
000001f0: 7a26 7f3f 0466 833f e13d 843f 3c60 833f
00000200: cf9f 003d 66c0 e83c 2225 eabc d60b 87bc
00000210: a598 a0bb 8626 193c 3c0d cfbc 54da b03c
00000220: 7e71 863c 49a6 993b b207 c5bc 55c5 b5bc
00000230: 886f a23c 217a cdbc b0e7 893c 7e52 66bc
00000240: 7bea d33c 179f 76bc 0c02 01bc 1bfd 163c
00000250: 9673 21bc 5a4a ccbc 27b7 e9bc fd07 ddba
00000260: 3689 653c fb93 28bc 252e c63c c12b 0e3d
00000270: d679 823c 1ae3 df3c 434e 943c 7252 e93b
00000280: 7bdd e7bc beba 47bc 8ca4 c6bc 6282 813c
00000290: 98b4 18bb d94f edbc 2755 a93b 76cc a5bc
000002a0: 70bc 52bb d32c c2bb 5758 abbb a20b a3bc
000002b0: 2f4a a43c d81f f8bc f1c7 aebc 9d64 6fbc
000002c0: c79a 6ebc 7157 e83c 5fd2 c43c 1929 afbb
000002d0: e9a0 e7bc 774b 233d aa94 33bc 2e58 b0b9
000002e0: 8e40 1cbc b6f0 9f3b 3eb9 693c 345f 26bc
000002f0: 1d0c ca3c bed7 c03c be9a 62bc 3d5b fbbb
00000300: 4a88 d13c 18e4 7b3c 0897 ec3b c99b 313d
00000310: 2c45 283d 6fa1 cc3b 8f44 183d 90a6 2d3d
00000320: 1606 033d 8ad1 1b3d 8341 5bbb 54cd 4a3c
00000330: 661d 1b3d d597 7e3c 4e91 133d 84b3 763c
00000340: 3e78 bf3c 826d 883c e472 333d f411 edba
00000350: 51c4 3c3d 69dc 023d 14fb b93b d2bb de3c
00000360: 8c09 313d 5304 143d f004 e73c c8e5 983c
00000370: dc13 453c 8c0f 1f3d 596e 153d 0c2e 4d3b
00000380: db6b 0e3d 4fdf b33c 46e4 bc3c 2b7e 103d
00000390: 367d 303d 42fb d93c e5fe 253d 9e28 eb3c
000003a0: 34a4 b93c 158f 223d 6dc2 9a3c 038b 113d
000003b0: 3dbb 003d 988c 133d 2123 d53c d833 d83c
000003c0: cef9 223d 0e5f b23c 0adc c33c 0a2a 303d
000003d0: 6b71 223d eb54 ee3c 98fc f73c e378 143c
000003e0: ebe6 153d 8053 8d3c 1dfe 093d a6c7 0b3d
000003f0: 4e0d 79ba bb9e a43c 0267 0b3d 4de8 023d
0.02424965 0.012547222 0.019120313 0.03965124 0.036895104 0.0075231036 0.038447592 0.04182497
0.02176817 0.036625735 0.0014309401 -0.0059191934 0.028554384 0.017463569 0.026447779 -0.0084421635
0.011945468 0.0142984325 0.038750406 0.0051513696 0.0407749 0.028568804 0.0042588576 0.016716758
0.036376003 0.032022562 0.024714874 0.01824016 0.0035290539 0.032513876 0.033996508 -0.0006370078
0.032494746 0.019008227 0.032641277 0.030585082 0.03820825 0.021387585 0.031118829 0.027669001
0.0053052115 0.036339168 0.024219396 0.010405483 0.030451482 0.036306255 0.020871758 0.021893196
0.03556094 0.019798156 0.028212735 0.03899182 0.026842253 0.024957387 0.027173294 0.0071657337
0.03227134 0.0047808946 0.026216272 0.031990428 -0.007721512 0.016033612 0.032563638 0.018218793
1.0226678 1.0114834 1.0063839 1.0288216 1.0379735 1.0049034 1.0373608 1.0409346
1.0277531 1.0368196 0.9966138 1.0168517 1.0353545 1.0214512 1.024907 1.0168519
1.0246513 1.0157564 1.0447005 0.9921418 1.0422907 1.0288029 1.0189203 1.0214041
1.0382048 1.0408852 1.025306 1.0136633 1.0055996 1.0338444 1.0335206 0.9989369
1.0254788 1.0236144 1.0226312 1.0340971 1.0405653 1.0234693 1.0360503 1.0268065
1.0313323 1.0363257 1.0163974 1.0324011 1.0301825 1.0318761 1.0139906 1.0237038
1.0433466 1.0213203 1.0266192 1.0402752 1.0338815 1.0340064 1.0302496 1.0050693
1.0345176 1.019201 1.0305737 1.022954 0.99668086 1.0265508 1.0331384 1.0263743
0.031402405 0.028412055 -0.02858216 -0.016485136 -0.004901009 0.009347564 -0.025274865 0.021588482
0.01641154 0.004689012 -0.024051521 -0.022188822 0.019828573 -0.02508265 0.01683411 -0.014057754
0.025868645 -0.015052578 -0.007874023 0.0092156185 -0.009854218 -0.024937797 -0.028529717 -0.0016863343
0.014009764 -0.010289188 0.024191925 0.034709696 0.015927237 0.02732997 0.018103724 0.007120424
-0.028303852 -0.012190519 -0.024248384 0.015809242 -0.0023301002 -0.028968738 0.0051676217 -0.020239096
-0.0032155775 -0.0059257536 -0.005229037 -0.019903008 0.020054905 -0.030288622 -0.021335574 -0.01461139
-0.014563269 0.028362008 0.024026094 -0.0053454754 -0.02827497 0.03986689 -0.010960737 -0.00033635035
-0.009536875 0.00488099 0.014265357 -0.010154534 0.02466398 0.023540374 -0.013830839 -0.0076707886
0.025577683 0.015374206 0.0072201528 0.04336146 0.041081592 0.0062448303 0.037174758 0.042395175
0.031988226 0.03804163 -0.0033455796 0.012378056 0.037869833 0.015539129 0.036027245 0.015057448
0.023372766 0.01665378 0.04381074 -0.0018087015 0.04608566 0.03194848 0.005675683 0.02718917
0.043221995 0.036136936 0.028200597 0.018664256 0.012028661 0.038833186 0.03648219 0.0031307964
0.034770828 0.021957068 0.023058068 0.035276573 0.04308816 0.026609067 0.04052629 0.028705891
0.022661306 0.039687235 0.018891538 0.035532963 0.031428564 0.036022753 0.026017727 0.026391909
0.039789014 0.021773841 0.023908634 0.04300884 0.039658945 0.029093226 0.030271813 0.009062025
0.036597174 0.01725173 0.033689607 0.034125946 -0.0009500579 0.02009522 0.034033783 0.03195982
